logs/hitters/version_0/checkpoints/epoch=49-step=300.ckpt (torch, 14895 bytes, 6 tensors)

model.sequential.0.weight f4 [50, 19]
00000000: 5151 d0bd 54fa bc3c 26e0 93be dfa4 89be
00000010: 91e1 40be b69d 1dbd ed1b d6bd e2bb a73d
00000020: ed7e f6bd 76f2 20bd 7c65 2dbe d693 14be
00000030: 826a a3be 02fe 80be 7a3d 47be 3465 bbbd
00000040: 586f 18bc ca3b 1a3d e0d4 82be 1eb3 4cbe
00000050: 4c94 88bc 315a b93d 36bf 16be 11ca 923d
00000060: f643 0cbe 8015 9bbd cea1 dc3d 3a2a a0be
00000070: c84a 7abe c0df 21be f4f8 41be 2525 c93d
00000080: e6ab 7ebe cc8a 52be 4e43 85be 9235 a1be
00000090: 8688 6fbe 9513 c73d a049 1b3b 885c 373c
000000a0: 1517 b4bd 2ad7 5ebe 8e9e 7abd 61df a0be
000000b0: bf12 88be 5a82 5fbe ba48 373d bc5b 0d3d
000000c0: 2c96 4ebe c8c0 ddbd 0463 3f3d ce24 033e
000000d0: 289e 12bc d753 8dbd 7c72 5c3d f2b8 70be
000000e0: 5e7e 6abd 7236 8fbe 90c8 84be b6c1 5fbe
000000f0: c053 793b b08f fdbb 748e 71be c8ba 18bd
00000100: 51ec d13c 804f 04be 9dd8 bbbd 2a38 41bd
00000110: 12bd 2b3d 87ca f53d 24f9 acbe e07d 3cbe
00000120: 1612 90bc 99db 003d 68fd 993d ae75 0f3d
00000130: b696 5ebd 8857 99be 68e3 ac3c e1f7 12be
00000140: afef 5abe e7b9 503e 3573 983d d85e a8be
00000150: 84b7 69bd 94f9 0dbe 190f 0dbe e1ef 51be
00000160: 58f3 40bc 828b 71be 923d ac3d e436 833c
00000170: 2e8c 833d 50f6 68bc 8574 a7be 71f3 413e
00000180: a5ff 323f fb5a b33e 48db 6a3e 7f31 ad3e
00000190: c5b3 403f 0f0f 193e e44f 55bc 7179 163e
000001a0: 8fcb 113e 0214 6c3e 0386 d03d e42e 6ebc
000001b0: ab62 1c3e 697b 78bf 7f92 a33e c5dc 9e3c
000001c0: b61d bc3d 6453 bb3e e4d8 273f 73cc 153e
000001d0: eb9d ad3e 2aca e33e 6ba7 e63e f0ae 133f
000001e0: b9e1 02be 4b73 3abe 6e6a b9be 8f4a 8ebd
000001f0: 327b d9be 8284 b9be 6eb8 77be f1d8 56be
00000200: 4fa5 963f 669f 573e 1688 bbbd c131 1d3f
00000210: a189 65be 3f65 fcbe 407e b9be def8 d6be
00000220: 41ed 04bf a17c 08bf 678a e5be 53fc 1a3e
00000230: 9368 313e 55ef 543d 4ab6 443d f128 1ebe
00000240: caf1 9ebe 789e 25be 4d9b 76be 0747 44be
00000250: 9af1 5ebe 959d 05bf c031 38bf 2177 03bf
00000260: 609a 3ebd 1dd5 003e 4204 fe3d e490 62be
00000270: 398a 123e 16d4 37be d4a8 46bd 3682 bebd
00000280: 80ff 34bd 2c80 38bd 96ce 52be 1ed7 4abe
00000290: ac0a 13bd 806f 423b 2670 d5bd 5afd b03d
000002a0: 7971 53be e0aa 7dbc 3f98 4e3e 0239 46be
000002b0: 5678 db3d ec93 8abc 2e34 9dbe faef 383d
000002c0: 3882 01be 4a45 4fbe 6de9 aa3d 9b1e 92be
000002d0: 2b62 9abd d495 17be 9eb8 823d a64a 13bd
000002e0: c8b2 273c 7c7b 9bbc 8ae4 1ebe 2ace 17be
000002f0: 50ff 93be a420 c73c adfe ad3e 9560 063f
00000300: 1a54 afbc f649 a03e 42ea 263e db2c b43e
00000310: 7704 a1be 8bd7 6c3c 9d4b 9cbd b67c 343e
00000320: 7fef bc3d 8316 833e 2b3a 36be 9963 8ebd
00000330: 7b45 8ebf ce01 fb3e 7dec ddbc 43c6 f63e
00000340: 5ebd 343e df2b cabe c9d9 14bf 16ac 39bf
00000350: ae00 2abf e0e1 38bf 9872 36bf 4e9e 6f3f
00000360: d236 bdbe dd01 abbe 2c11 083f 8b40 9bbe
00000370: b85c ac3d 682e 263d a7a2 c43f 05a3 5fbf
00000380: 15ce 983e 31c4 813f 4796 243f 7db4 b13f
00000390: ecc5 1ebe 6f81 eabd cc54 09be e451 693c
000003a0: 6795 fbbd 1fed c83c e2a7 363e e46d 1cbe
000003b0: 9ad7 c33d 6ef6 25be 2bd1 d3bd 394c 843d
000003c0: 9d4d 8b3d 7a4e 213f 5e33 bdbe 3a55 043c
000003d0: 6260 c23e d5cc 1ebe 0a75 353f bd54 94be
000003e0: 0a53 c6bd 34c3 1fbd 2e74 f7bd 1866 f83c
000003f0: db42 423e 7c12 2bbe 22df 71be 7d48 3dbe
-0.1017176 0.023068585 -0.2888195 -0.268836 -0.18836047 -0.038480483 -0.10454545 0.08190133
-0.12035928 -0.03929373 -0.16933244 -0.1450952 -0.31917197 -0.25193793 -0.19457045 -0.09150162
-0.00930389 0.037654676 -0.25553036 -0.19990203 -0.016672276 0.09050406 -0.14721379 0.07167447
-0.136978 -0.0757246 0.10773049 -0.31282216 -0.2444259 -0.1580801 -0.18942624 0.09821538
-0.24870262 -0.2056076 -0.26027912 -0.31486183 -0.23391923 0.09720532 0.0023695007 0.011191495
-0.08793465 -0.21761766 -0.061186366 -0.31420425 -0.26576802 -0.21827069 0.04474709 0.034511313
-0.20174474 -0.10827786 0.046725288 0.12807009 -0.00894884 -0.06900757 0.05382012 -0.23508051
-0.05724942 -0.27971226 -0.25934267 -0.21851239 0.0038044304 -0.007738076 -0.23589498 -0.037287503
0.02562538 -0.12920952 -0.09172175 -0.047172703 0.04192836 0.1200152 -0.3378383 -0.18407393
-0.017586749 0.031459425 0.075190365 0.035024337 -0.054342948 -0.29949594 0.02110453 -0.14352371
-0.21380495 0.20383416 0.07443849 -0.3288486 -0.05705978 -0.13864738 -0.1377529 -0.20501663
-0.011776768 -0.23588374 0.08410181 0.016017385 0.064232215 -0.014218882 -0.32706085 0.18940522
0.6992133 0.3503035 0.22935212 0.33826825 0.75274307 0.1494715 -0.013019536 0.14694764
0.14237808 0.23054507 0.10181811 -0.014537547 0.15272014 -0.9706331 0.31947705 0.01939238
0.091853544 0.3658706 0.65565324 0.14628772 0.33909544 0.44490176 0.45049605 0.5768881
-0.12781419 -0.18208043 -0.36214012 -0.06947815 -0.42476803 -0.36233908 -0.24191448 -0.20981194
1.1769198 0.210569 -0.09156816 0.61404043 -0.22415783 -0.49295995 -0.36229134 -0.41986746
-0.5192452 -0.5331517 -0.44832155 0.15135317 0.17325048 0.051986057 0.048025407 -0.15445305
-0.31043845 -0.16173732 -0.2408268 -0.1916772 -0.21771851 -0.52193576 -0.7195091 -0.5135365
-0.046533942 0.12581296 0.12403156 -0.22125584 0.1431054 -0.17951998 -0.04850085 -0.093021795
-0.044188976 -0.04504411 -0.20586619 -0.19808623 -0.03589885 0.002966851 -0.10421781 0.08642073
-0.20648755 -0.015482634 0.20175265 -0.19357684 0.10716312 -0.016916238 -0.30703872 0.045150734
-0.12647331 -0.20241275 0.08345304 -0.28538975 -0.07538255 -0.14803249 0.06382869 -0.035959862
0.010235496 -0.01897978 -0.15516868 -0.14824739 -0.28905725 0.024307556 0.33983365 0.5249112
-0.021402407 0.31306428 0.163003 0.35190472 -0.3144872 0.014455686 -0.076316096 0.17625698
0.09225368 0.25603113 -0.17795627 -0.069525905 -1.1114954 0.49024814 -0.027090305 0.48198137
0.17650363 -0.39486596 -0.58144814 -0.7252821 -0.6640729 -0.7221966 -0.71268606 0.9360093
-0.36955887 -0.3339986 0.531512 -0.3032268 0.08416122 0.0405716 1.5362138 -0.87358123
0.29844728 1.0137998 0.64291805 1.3883206 -0.15505189 -0.11450469 -0.13411254 0.014240716
-0.122843556 0.02452713 0.1783748 -0.15276295 0.09562607 -0.16207287 -0.1034263 0.06459851
0.06801913 0.6301037 -0.36953253 0.00807696 0.3796416 -0.15507825 0.7088171 -0.289709
-0.09683807 -0.03900452 -0.120827064 0.03032212 0.18970816 -0.1670627 -0.23620275 -0.18484683

model.sequential.0.bias f4 [50]
00000000: ec52 75be 8f18 43be 743b 93be 5ba1 a2be
00000010: c2ae 183d 1831 af3e 139a 673e d6c8 05bf
00000020: 3e51 9c3d 33b1 b7bd bdac afbd a8b0 863f
00000030: faa2 cf3e 38bc a6be 8d00 a8be 3bfe ef3d
00000040: 0ece 7f3e a864 743f 97d5 62bd 026a 16bd
00000050: 6613 9b3d eb07 aabe 3363 6a3e 9294 4a3d
00000060: ba86 6abe 5072 a23c ac83 e3bd 550e 623e
00000070: 39bb 69be 9ddc 853e f19a 2abe 530a 66be
00000080: e80a 10be 6a4b 66be aa37 8abd 5c8a c9be
00000090: bb97 8bbe a8d0 953f 1ed5 9dbd 59b5 4b3e
000000a0: ba0c ad3b c35e 373e 4989 eebd 16f1 31be
000000b0: dc33 113e 2912 c93d 7ceb 473c 3221 cf3c
000000c0: 241d cbbd 9a67 84bd
-0.23957413 -0.19052337 -0.28756297 -0.3176373 0.037276037 0.34217143 0.22617368 -0.52259576
0.07632683 -0.08969345 -0.08577869 1.0522661 0.4055403 -0.32565475 -0.3281292 0.117184125
0.24980947 0.9546609 -0.055379476 -0.03672219 0.07572059 -0.33209166 0.22889404 0.049458094
-0.22902957 0.0198299 -0.11109099 0.2207578 -0.22825326 0.26144877 -0.16660668 -0.22464876
-0.1406666 -0.22489706 -0.06748898 -0.39363372 -0.272642 1.1704302 -0.077066645 0.19893397
0.005281058 0.17907242 -0.11647279 -0.17377123 0.14179939 0.09817917 0.01220214 0.025284383
-0.099176675 -0.06465073

model.sequential.3.weight f4 [1, 50]
00000000: 242d b43d 209e 28bc d104 cb3d 2467 76bc
00000010: d07d 8e3d 9391 173e 15a4 0fbf f70a cabd
00000020: 3071 0dbd facd 7a3d 3986 b13d 39ed 8b3f
00000030: d05c 1e3e 80ec 283b 425c b83d 72df 013e
00000040: a8b4 2c3e c843 a03f 9396 943c 00f0 bfba
00000050: 7b00 923d 552c 5fbd 2812 a8bd 3a91 19bd
00000060: b981 b83d 2cc7 08be 6934 6a3d f86b 673d
00000070: b878 44bd acc5 e83d 8851 413c c887 a83c
00000080: 8ac0 a83d feb9 613d 9227 be3d f204 f33d
00000090: a87a 03bc e502 af3f 51ea f0bd 6120 d03d
000000a0: 2072 be3c 974b 043e 7664 4d3d a882 9b3c
000000b0: 0bcd ba3d 4695 a63d 8e32 b03d ba1c cb3d
000000c0: 026d 14bd fbe4 843d
0.087976724 -0.010291606 0.09913028 -0.015039239 0.069575906 0.14801626 -0.56109744 -0.09865373
-0.034531772 0.06123159 0.08668179 1.093177 0.15465093 0.002577573 0.09001972 0.12682894
0.1686579 1.2520685 0.018138206 -0.0014643669 0.07128998 -0.054485638 -0.08206588 -0.037492014
0.09009118 -0.13357228 0.05717889 0.05649945 -0.04796669 0.11365828 0.011799224 0.020572558
0.08239849 0.055109017 0.09284891 0.118661776 -0.008024849 1.3672758 -0.11763442 0.10162426
0.023247778 0.1291946 0.050144635 0.0189832 0.0912114 0.081339404 0.086033925 0.099175885
-0.03623677 0.06488987

square_avg f4 [50, 19]
00000000: 44a0 4d47 c609 7945 3226 6842 0ae4 8544
00000010: f30d 8244 195d 3d44 e64f 1b42 2262 e74a
00000020: e7e1 0f49 f211 ce45 a847 1348 63b0 0248
00000030: 32a2 a147 245b bd3d 0af3 523d a596 2447
00000040: 7f96 d845 feba e641 18cd dd3d 1382 624a
00000050: 0ccc 8a48 3c8a 7b45 fa9e 8f47 f369 8547
00000060: 8578 7c47 37f7 4b45 d1d7 154e 10da 364c
00000070: 6ad8 1f49 ab38 384b bab5 3a4b 8dd3 004b
00000080: d7e8 e640 52f4 9340 a49b 664a 084d 9748
00000090: 4ffd 0045 376b 8c40 2d5a 113f aef5 183d
000000a0: 84e7 7339 2861 173c dac9 bb3b c4e6 403b
000000b0: 84f1 3538 d893 9b3f f26e 923d 4560 a939
000000c0: 98fc a03c ebbb 223c c2e7 ce3b ee54 fc34
000000d0: c60b 4136 4178 163e dba0 733e be15 813a
000000e0: ee54 fc34 1738 dc4a 9365 0349 d97a 0f46
000000f0: c9a1 1848 cea6 0748 7ed0 e747 c97b b045
00000100: ec44 744e 27e8 934c e680 8149 7071 9b4b
00000110: 3993 924b 230c 504b 4c28 8541 4adb da40
00000120: b2e6 bd4a e01a 5549 8e88 6745 9dec 5a41
00000130: fc91 1241 229c bb3c 0000 0000 0000 0000
00000140: 0000 0000 0000 0000 229c bb3d 89fd 1942
00000150: 9071 ed3f 229c bb3d ad0f 533f 8aa3 8f3f
00000160: 229c bb3e 229c bb3c 0000 0000 5055 0b43
00000170: fe8d 8a44 ad0f 533f 229c bb3c ce6d 184d
00000180: 285d 444b df07 4848 7731 524a a445 5a4a
00000190: a70d 084a bb11 ba47 43f2 8450 53a9 a54e
000001a0: 268d b04b 399a aa4d 5e52 b54d ec5e 404d
000001b0: 3c54 8143 8c6f 6c43 eacd 344d 3ee9 434b
000001c0: 4cce 6047 483d 7a43 05aa 354d 574b 8b4b
000001d0: ae66 a948 345a 964a ac7d 8c4a 6dbe cb49
000001e0: f346 4746 15f2 e54e 14a8 2b4d 528b 344a
000001f0: 9bca 234c 53e0 424c c487 5e4b fc19 ca43
00000200: 06a1 7c43 c1a2 044e ee1f 9b4b 0cc8 6e47
00000210: 3464 c043 a19f e54b bc2b 0f4a a27f 0c47
00000220: f346 1349 cb67 2949 8303 be48 0f05 c146
00000230: 69a4 924f abc7 b84d bb73 c44a 4bd4 bd4c
00000240: 3b6b cd4c 5977 404c 1779 1842 693b 2f42
00000250: c2e6 964b aa63 c449 b039 0746 408f 0c42
00000260: 0000 0000 0000 0000 0000 0000 0000 0000
00000270: 0000 0000 0000 0000 0000 0000 0000 0000
00000280: 0000 0000 0000 0000 0000 0000 0000 0000
00000290: 0000 0000 0000 0000 0000 0000 0000 0000
000002a0: 0000 0000 0000 0000 0000 0000 13f1 8048
000002b0: c4a7 9a46 9558 1e43 84b8 9c45 1c91 4e45
000002c0: 42e4 1e45 6492 d642 294f 9d4b 0476 c449
000002d0: 75cc e945 7537 b548 64f9 6f48 90e4 1048
000002e0: 0269 d03e a0d6 e83e f762 a247 6281 0b47
000002f0: 0fc5 1243 c639 043f b4a6 d24c 28fb 084b
00000300: 9f08 0e48 1acb 124a a00f 1c4a 5456 b349
00000310: b319 6147 8c5a 2250 a445 4c4e 4204 5b4b
00000320: 4dba 544d 7dc7 624d e9f7 ee4c 8553 1343
00000330: 0a20 0543 2372 ef4c a693 034b fd48 0e47
00000340: 5e79 0d43 3462 f84a a9d8 cb48 eecd 1245
00000350: 752d cc47 649e 3447 f60e b247 8d26 9e45
00000360: b5c0 3a4b 6565 3049 84dc e645 a3f4 4248
00000370: 42cc fc47 0ecb 0848 a2ac 9944 3c7f 1742
00000380: 7828 1d4b 0e81 784c c288 3947 a2ac 9944
00000390: 0860 914b 023b aa49 d3c2 b046 1b18 b848
000003a0: 35c9 c448 60f4 3f48 fe7a 3346 1ce3 ce4e
000003b0: b17e fa4c 475f c149 6a5f f34b 2f8c fd4b
000003c0: 0e8e 554b cb0b 5542 da67 9041 c4e4 7c4a
000003d0: 0b3a 364a f967 e145 2572 3c42 4715 c942
000003e0: 6cb1 803e 0000 0000 0000 0000 0000 0000
000003f0: 0000 0000 6cb1 803f 4f43 d343 91e0 a241
52640.266 3984.6108 58.0373 1071.1262 1040.4359 757.45465 38.828026 7.581969e+06
589342.44 6594.243 150814.62 133825.55 82756.39 0.09245899 0.05150131 42134.645
6930.812 28.841305 0.10830134 3.7111088e+06 284256.38 4024.6396 73533.95 68307.9
64632.52 3263.451 6.2848723e+08 4.7933504e+07 654726.6 1.2073131e+07 1.2236218e+07 8.442765e+06
7.215923 4.6235743 3.778281e+06 309864.25 2063.8318 4.3880877 0.5677822 0.037343673
0.00023260532 0.009239472 0.0057308497 0.0029434422 4.337869e-05 1.2154493 0.071500674 0.00032305918
0.019651696 0.009932498 0.006314249 4.7000452e-07 2.8766094e-06 0.1469431 0.2379183 0.0009848399
4.7000452e-07 7.2161395e+06 538201.2 9182.712 156295.14 138907.22 118688.984 5647.473
1.0245394e+09 7.7545784e+07 1.0608928e+06 2.037424e+07 1.921189e+07 1.3634595e+07 16.644676 6.8392687
6.222681e+06 872878.0 3704.5347 13.682767 9.160641 0.022901598 0.0 0.0
0.0 0.0 0.09160639 38.497593 1.8550282 0.09160639 0.82445794 1.1221783
0.36642557 0.022901598 0.0 139.33325 1108.4373 0.82445794 0.022901598 1.5983331e+08
1.2868904e+07 204831.48 3.4438058e+06 3.576169e+06 2.2290978e+06 95267.46 1.7843755e+10 1.3896687e+09
2.314094e+07 3.5777923e+08 3.8025926e+08 2.017154e+08 258.65808 236.43573 1.895871e+08 1.283923e+07
57550.297 250.23938 1.9048866e+08 1.8257582e+07 346933.44 4.926746e+06 4.603606e+06 1.6690696e+06
12753.737 1.9289238e+09 1.7999494e+08 2.9580365e+06 4.293694e+07 5.1085644e+07 1.4583748e+07 404.203
252.629 5.563147e+08 2.0332508e+07 61128.047 384.78284 3.0097218e+07 2.345711e+06 35967.633
603247.2 693884.7 389148.1 24706.53 4.9204966e+09 3.8751165e+08 6.4373415e+06 9.952521e+07
1.0769865e+08 5.045386e+07 38.11825 43.808018 1.9778948e+07 1.6088212e+06 8654.422 35.139893
0.0 0.0 0.0 0.0 0.0 0.0 0.0 0.0
0.0 0.0 0.0 0.0 0.0 0.0 0.0 0.0
0.0 0.0 0.0 264072.6 19795.883 158.34602 5015.0645 3305.0693
2542.266 107.28592 2.0618834e+07 1.6094085e+06 7481.557 371131.66 245733.56 148370.25
0.40705115 0.45476246 83141.93 35713.383 146.76976 0.51650655 1.1044189e+08 8.977192e+06
145442.48 2.4050625e+06 2.556904e+06 1.4691305e+06 57625.7 1.0895372e+10 8.56779e+08 1.4353474e+07
2.230612e+08 2.3779528e+08 1.25288264e+08 147.32625 133.12515 1.25538584e+08 8.623014e+06 36424.99
141.47409 8.139034e+06 417477.28 2348.8706 104538.914 46238.39 91165.92 5060.819
1.2239029e+07 722518.3 7387.5645 199634.55 129432.516 140076.22 1229.3948 37.874252
1.0299512e+07 6.5143864e+07 47496.758 1229.3948 1.9054608e+07 1.3945282e+06 22625.412 377024.84
403017.66 196561.5 11486.748 1.7354952e+09 1.31331464e+08 1.5841049e+06 3.1899348e+07 3.323299e+07
1.3995534e+07 53.261517 18.050709 4.143409e+06 2.9856028e+06 7212.9966 47.11147 100.54156
0.25135362 0.0 0.0 0.0 0.0 1.0054145 422.52585 20.359652

square_avg f4 [50]
00000000: 73f3 b73e c15d be41 a696 8336 3e29 5242
00000010: 229c bb3c 7879 4044 f7bd 3644 66a3 0f43
00000020: 0000 0000 597b a73f 83b7 f343 59ca 9d44
00000030: 8614 ff42 6cb1 803e df94 d83c 1747 3e44
00000040: f31d d844 e80b e044 161c 2441 bbe8 c63d
00000050: 6d51 d843 5a76 6942 0000 0000 581e 153c
00000060: 605d 6d38 0000 0000 2535 6943 dfea 0942
00000070: 0000 0000 e0b0 0844 afdc 903b 0000 0000
00000080: a1b2 873f da09 7c40 b3d6 a53a c277 4644
00000090: 45e3 f539 91b6 4445 0000 0000 f693 6644
000000a0: f5cf b441 0000 0000 c614 cf40 bf73 033f
000000b0: 6e65 d243 b0f0 f143 8dc3 df40 f47b c343
000000c0: af1f 3742 5e24 ab43
0.35927925 23.795778 3.921642e-06 52.540276 0.022901598 769.89795 730.9682 143.63828
0.0 1.3084518 487.4337 1262.3234 127.540085 0.25135362 0.026438175 761.1108
1728.9359 1792.3721 10.256857 0.097123586 432.63614 58.365578 0.0 0.009101473
5.6592165e-05 0.0 233.2076 34.479366 0.0 546.7637 0.004420839 0.0
1.0601388 3.9381013 0.0012652486 793.8712 0.0004689937 3147.4104 0.0 922.3119
22.601542 0.0 6.471286 0.5134849 420.79242 483.88037 6.992621 390.96838
45.78094 342.28412

square_avg f4 [1, 50]
00000000: 416a 7e4e 0be4 3f4e d22d bd45 e32f f34e
00000010: b03c 0347 39eb 2e50 1486 884d ffcd 4e4f
00000020: 0000 0000 d72e 764d 1f09 fe50 ae04 5d4c
00000030: 7a2a 854d 0903 0c47 70e5 2748 9e56 a950
00000040: 0be9 8950 2e87 b64c 8433 434d 106a bc44
00000050: 6abd db50 6316 a74f 0000 0000 49ba b445
00000060: 7357 2243 0000 0000 1ed6 7850 6f68 024e
00000070: 0000 0000 346b fc50 7084 ad3b 0000 0000
00000080: 6005 b94e 4e56 014c b08d 4d46 5beb 9f50
00000090: 0583 1441 cc6f 264d 0000 0000 ba3e 8950
000000a0: 377e a04e 0000 0000 a647 644f e321 2047
000000b0: f99e d750 0b77 ad50 fd4f 824a dd7e 5d51
000000c0: b583 144d 54a0 c450
1.0670941e+09 8.048483e+08 6053.7275 2.0400009e+09 33596.688 1.1738605e+10 2.8631104e+08 3.4696067e+09
0.0 2.5814155e+08 3.4096085e+10 5.7938616e+07 2.792692e+08 35843.035 171925.75 2.2728208e+10
1.851001e+10 9.569726e+07 2.0468333e+08 1507.3145 2.949299e+10 5.6065244e+09 0.0 5783.2856
162.3416 0.0 1.6699128e+10 5.4697056e+08 0.0 3.3879073e+10 0.005295329 0.0
1.5520686e+09 3.390495e+07 13155.422 2.1464013e+10 9.281987 1.7452154e+08 0.0 1.8420716e+10
1.3463131e+09 0.0 3.8299008e+09 40993.887 2.8940159e+10 2.328208e+10 4.2700785e+06 5.945726e+10
1.5572872e+08 2.6390733e+10
